best_model.pkl (torch, 4683 bytes, 7 tensors)

seq.0.weight f4 [37]
000000 2e c1 4b c1 87 b9 c5 42 7a cf 11 41 4b cf 82 41
       -12.734663 98.86236 9.113153 16.351217
000010 2a 61 26 42 df f2 3f 41 04 ae 27 41 ba f9 38 c0
       41.594887 11.996795 10.479984 -2.890242
000020 e6 a9 65 41 94 69 87 41 a4 3f 2e 41 37 c8 59 41
       14.353979 16.926552 10.890537 13.611381
000030 b0 1c 39 41 c5 c5 ef 41 a5 e0 bd 41 ad 33 8e 40
       11.569504 29.971567 23.73469 4.443808
000040 42 f8 86 c1 0f cb 9e 41 8e a3 ad 41 00 00 80 3f
       -16.87122 19.84915 21.70486 1.0
000050 74 a3 56 c1 36 1f 2e 41 a1 57 f6 3e 97 b8 31 41
       -13.414906 10.88262 0.4811373 11.107566
000060 51 cf c8 41 2e 11 9c c1 40 87 a1 41 69 c6 83 c1
       25.101229 -19.508389 20.19104 -16.47188
000070 3f bc 7a 41 b6 5d 65 c1 41 11 25 c1 34 30 63 c1
       15.6709585 -14.335379 -10.316712 -14.199268
000080 54 5f 02 42 79 27 08 c2 d7 63 14 41 eb 8b 18 42
       32.593094 -34.038548 9.274375 38.13664
000090 4d 50 06 42
       33.57842

seq.0.bias f4 [37]
000000 35 05 19 42 ad f9 b8 41 18 6e 91 40 36 b7 29 41
       38.255085 23.121912 4.544689 10.607229
000010 fd 4b 55 41 82 f7 d9 40 f7 01 40 41 ba 72 2f 40
       13.331052 6.8114634 12.00048 2.7413774
000020 ca 7e a5 41 7a a9 e2 41 ea 30 de c0 32 a3 d1 c1
       20.686909 28.332752 -6.943471 -26.204685
000030 ca ed a3 41 bd 05 8d c1 6b 27 cc c1 25 0f 22 c1
       20.491108 -17.627802 -25.519247 -10.128697
000040 8e 18 11 c1 e7 35 6b c1 88 f0 32 c1 63 98 b6 40
       -9.068495 -14.70066 -11.183723 5.706102
000050 cb b0 11 41 11 68 13 41 f8 f7 21 bf f1 bd 71 41
       9.105662 9.212907 -0.63268995 15.108872
000060 86 58 83 41 e0 68 c2 c1 fd 7f 14 41 fc 1d 95 41
       16.418224 -24.301208 9.281247 18.63964
000070 d1 06 de c1 5c 03 9c 41 84 94 01 c2 be 02 d8 40
       -27.753328 19.50164 -32.395035 6.7503347
000080 08 7a 08 42 2a 72 5e 42 ba 37 53 42 18 ca 3a 42
       34.11917 55.61149 52.80442 46.697357
000090 aa e8 52 c2
       -52.72721

seq.0.running_mean f4 [37]
000000 50 ab 02 40 3b d6 4f 42 39 46 21 41 14 40 aa 40
       2.041706 51.95921 10.079644 5.320322
000010 6a be f8 44 fa 52 40 3f fa 83 32 3e ae 36 a3 3e
       1989.9504 0.7512661 0.17433158 0.31877655
000020 ba 25 71 3d df ee 3e 3e 4d 7b 28 3f fc b4 c5 3d
       0.05887387 0.1864581 0.6581314 0.09653661
000030 c9 4b 0d 3d 42 0d ea 3e a1 24 02 3f 7b 8f ae 3e
       0.034496102 0.4571324 0.5083714 0.34093842
000040 08 58 f6 3e fa 30 36 3e 69 ce 51 3c 00 00 00 00
       0.48114038 0.1779212 0.01280556 0.0
000050 91 a8 f0 3e 2c 8e 06 3e e8 81 c5 3e 51 69 30 3e
       0.47003606 0.13140172 0.38575673 0.17227675
000060 56 3f 16 3e f8 4c cc 3d 49 b4 2c 3d 2e 83 25 3e
       0.14672598 0.09975618 0.04216412 0.16163322
000070 28 6b fd 3d 85 e5 81 3e 22 0d 68 42 50 e1 60 42
       0.12373954 0.25370422 58.012825 56.22003
000080 a4 ee f5 41 84 20 b3 41 73 60 b7 40 72 de 49 43
       30.741524 22.390877 5.7305236 201.86893
000090 14 e6 cc 45
       6556.76

seq.0.running_var f4 [37]
000000 18 e5 43 3f 62 49 b3 43 51 2b 06 42 6a 75 8c 41
       0.76521444 358.5733 33.5423 17.557331
000010 61 ff d8 43 92 3e ee 3e c8 46 14 3e e6 5c 5f 3e
       433.99515 0.46532112 0.14480126 0.21812782
000020 9c 93 61 3d f2 af 1a 3e 61 07 67 3e e0 48 b4 3d
       0.055072412 0.1510618 0.22561409 0.08802962
000030 02 bd 08 3d df 3e 80 3e 37 4a 81 3e 5e 08 65 3e
       0.033383377 0.25047967 0.25251934 0.22366473
000040 7d c8 80 3e d3 4e 16 3e 3e 19 50 3c 04 00 00 00
       0.2515296 0.14678507 0.012701331 6e-45
000050 40 50 7a 3e ca 96 ea 3d 0b 7a 71 3e 1b 48 13 3e
       0.24444675 0.11454542 0.23581712 0.14382975
000060 52 62 01 3e de 78 ba 3d 89 33 26 3d 08 d2 0a 3e
       0.12635162 0.09105085 0.04057649 0.13556683
000070 78 b1 df 3d b7 d1 41 3e 96 65 f2 3a a9 0b 4b 3c
       0.10922521 0.18927656 0.001849341 0.012392917
000080 5c 52 0b 44 dd 8d 67 43 db c1 9f 41 af 6f bb 46
       557.28687 231.55415 19.969656 23991.842
000090 e9 5b ac 4b
       2.2591442e+07

seq.1.weight f4 [8, 37]
000000 35 2f ca c0 35 49 d8 41 09 b1 b1 3f 68 08 01 40
       -6.3182626 27.035746 1.3882152 2.016138
000010 59 7c 67 41 0f 7c 17 40 93 63 c9 3f c3 7b a3 be
       14.467858 2.366947 1.5733513 -0.3193036
000020 c3 15 7f bf c6 a6 3a 3f 93 e4 ad be f8 8c 01 bf
       -0.9964258 0.72910726 -0.3396345 -0.50605726
000030 0c 9b db bf 62 f1 b5 bf 0c 1b 10 40 86 41 4c 3f
       -1.7156692 -1.4214289 2.2516508 0.7978748
000040 e8 a5 50 c0 e7 26 28 c0 fd ab a9 be fb 24 ff be
       -3.260126 -2.6273744 -0.3313903 -0.498329
000050 a1 b0 4e c0 6a 30 27 3d b5 6d 12 be 3f 28 8e 3e
       -3.2295306 0.040817656 -0.14299662 0.2776508
000060 b8 2d eb bf 96 df 9c 40 ec c2 bc 3f 66 3a 46 bf
       -1.8373327 4.902293 1.4746985 -0.7743286
000070 04 9f 6e bf 18 12 80 c0 e0 25 a3 40 13 fe 6f 3e
       -0.9321139 -4.0022087 5.0983734 0.23436765
000080 47 68 c4 40 73 10 63 c1 9e 3f 24 c0 f2 4b d7 40
       6.137729 -14.191516 -2.566383 6.7280207
000090 d7 c1 00 c1 d7 59 3e 41 c2 4c e0 41 89 45 f1 3f
       -8.047324 11.896934 28.03748 1.8849345
0000a0 2f 74 a1 40 03 0a 1e 41 3b db 88 40 89 d7 a0 40
       5.0454326 9.877444 4.2767615 5.0263104
0000b0 28 30 96 3f 22 24 09 41 0d 56 33 41 71 35 7a c0
       1.1733446 8.5713215 11.2085085 -3.9095118
0000c0 7f 36 2a c1 6f 90 f4 40 7e 89 20 c1 c1 0d 4e c1
       -10.638305 7.642631 -10.033567 -12.878358
0000d0 73 bd 6e c0 02 40 a1 c0 03 63 df c0 aa 21 be c0
       -3.730313 -5.0390635 -6.9808364 -5.9416094
0000e0 21 7a 18 40 eb e6 6d 40 28 79 81 40 49 ba b3 be
       2.3824542 3.717219 4.0460396 -0.35103062
0000f0 d2 06 cf 40 4a 75 03 41 33 90 1e c1 63 f1 9e 40
       6.4695826 8.216135 -9.910205 4.966966
000100 83 d4 f6 40 90 65 2b c1 8f b5 f2 40 36 25 4c c1
       7.7134414 -10.712296 7.584663 -12.759085
000110 63 46 9c 40 15 3c 4c 41 20 f8 a6 41 d3 55 a6 41
       4.883592 12.764668 20.871155 20.791906
000120 76 02 96 41 4b 84 a8 c1 6c a7 30 41 00 82 cf 41
       18.751202 -21.064596 11.0408745 25.938477
000130 cb fa ec 3f a8 1d 9e 40 40 4a 12 41 03 be 80 40
       1.8514036 4.94112 9.143127 4.023195
000140 b7 61 93 40 51 ef 84 3f 61 34 fb 40 05 e0 27 41
       4.605678 1.0385534 7.850144 10.492192
000150 60 c2 69 c0 4e ae 18 c1 60 10 dd 40 e0 84 14 c1
       -3.6524887 -9.542555 6.908249 -9.28244
000160 f8 42 3f c1 11 ed 5d c0 a7 48 94 c0 a9 2a d4 c0
       -11.95385 -3.4675944 -4.6338687 -6.6302075
000170 59 02 ad c0 2c b6 0a 40 2d 0e 59 40 d2 d0 6d 40
       -5.4065366 2.167369 3.3914902 3.7158704
000180 67 17 10 be 0a 7a b3 40 b3 6c f2 40 3f fc 13 c1
       -0.14071427 5.6086473 7.575769 -9.2490835
000190 80 d8 93 40 19 82 e3 40 1a 20 22 c1 37 cb e0 40
       4.620178 7.109631 -10.132837 7.0248065
0001a0 00 f2 3c c1 71 48 99 40 dc 1e 3c 41 d6 96 9c 41
       -11.809082 4.790093 11.757534 19.57365
0001b0 f1 e9 98 41 dd 49 8b 41 1b 28 9c c1 66 92 5a c0
       19.11423 17.411066 -19.519583 -3.4151855
0001c0 dc c5 ec 41 73 21 17 3f d5 fd 71 bf ea ec 6f 3f
       29.596611 0.59035414 -0.9452794 0.9372088
0001d0 d1 3f 9c 3f 70 1c a5 c0 30 05 3a 3e 40 22 3a 40
       1.2206975 -5.1597214 0.18166041 2.9083405
0001e0 30 14 93 c0 8b 1e 5a be f1 eb 28 40 92 da bb bf
       -4.5962143 -0.21300714 2.6394007 -1.4676077
0001f0 68 3d 2b 41 32 d7 ae c0 d5 8f 34 3f 7d 1a 27 40
       10.702492 -5.463769 0.7053197 2.6109917
000200 44 f8 ac bf 46 c0 89 40 76 4c 9c 3e 7b 12 38 41
       -1.3513265 4.304721 0.30527085 11.504512
000210 43 eb b4 40 7c 1d 47 3e a8 6b 34 c0 da 94 76 40
       5.6537185 0.19444841 -2.8190708 3.8528352
000220 93 cb bd c0 b4 12 2c c1 ce fa d5 3f f7 af 25 be
       -5.9311004 -10.754566 1.6717165 -0.16180407
000230 d7 ee 0a 3f e8 d7 f3 c0 bd 0b b7 3f 7d dc ca c1
       0.5427069 -7.6201057 1.4300457 -25.35766
000240 09 10 f6 41 c6 fd a8 c0 79 b9 e0 c1 a7 09 66 41
       30.75783 -5.280978 -28.090563 14.377357
000250 df c6 87 41 75 8c 33 42 d7 86 4d 40 cc 77 f8 40
       16.972105 44.887165 3.211355 7.7646236
000260 a7 ae 69 41 6c 78 d0 40 1e 8e dc 40 de 19 e7 3f
       14.60514 6.5147 6.8923483 1.8054769
000270 00 27 4a 41 c9 87 84 41 34 8d c1 c0 e5 58 7a c1
       12.6345215 16.566301 -6.0484867 -15.646703
000280 3d c0 28 41 bd ec 65 c1 b3 d0 96 c1 3a 65 a4 c0
       10.546933 -14.370297 -18.851904 -5.1373568
000290 84 80 f2 c0 17 37 30 c1 80 f8 08 c1 ee f0 53 40
       -7.578188 -11.01345 -8.560669 3.3115802
0002a0 f3 72 a5 40 90 e8 c1 40 6d 13 9b be 25 0a 12 41
       5.170282 6.059639 -0.30288258 9.127477
0002b0 9b 7c 47 41 f0 08 66 c1 c5 14 f0 40 78 df 30 41
       12.467921 -14.377182 7.5025353 11.054558
0002c0 f9 09 78 c1 06 7b 2f 41 50 2b 8f c1 27 30 e8 40
       -15.502435 10.967535 -17.896149 7.255878
0002d0 7e 63 95 41 23 e6 ee 41 a9 c6 ee 41 5b 81 dc 41
       18.67358 29.862371 29.847002 27.563162
0002e0 58 fc f4 c1 d9 76 15 40 98 50 30 41 44 eb 1d 3f
       -30.623215 2.335379 11.019676 0.6168711
0002f0 82 a9 d3 3f 94 c1 4f 40 86 2e 9a 3f da 52 9d 3f
       1.6536105 3.24619 1.2045448 1.2290909
000300 fb a8 80 3e 7b 1c 11 40 6b 05 32 40 3e bb 56 bf
       0.25128922 2.2673633 2.7815807 -0.8387946
000310 92 d1 3b c0 6e 4b d2 3f 7c 66 f1 bf 4f 49 6d c0
       -2.9346662 1.6429269 -1.8859401 -3.7075994
000320 71 d2 20 bf 8c 6a ce bf c6 12 27 c0 2e ae cc bf
       -0.6282111 -1.6126266 -2.6105208 -1.5990655
000330 f7 16 2e 3f 8d 96 2d 3f e1 77 6a 3f 7d 07 b7 3d
       0.6800379 0.6780785 0.9158917 0.08936975
000340 02 16 bd 3f f4 3a 19 40 77 de 15 c0 7d d2 bb 3f
       1.4772341 2.3942232 -2.3417032 1.4673611
000350 c5 58 de 3f 63 3d 35 c0 a2 1e cf 3f 5d 61 2b c0
       1.737084 -2.8318717 1.6181223 -2.6778176
000360 dd d1 c1 3f d9 21 56 40 29 dc 8d 40 19 54 9f 40
       1.514217 3.345816 4.433125 4.979016
000370 58 de 9d 40 9b f6 b7 c0 f9 06 26 be d2 65 40 be
       4.9333916 -5.748853 -0.16213597 -0.18788841
000380 59 2b be 3d 8b ef 69 3d 86 aa 8f 3d 8a 03 8d bb
       0.09285612 0.05711321 0.07014947 -0.0043034004
000390 35 1a 0c be 45 85 18 be af 8f 89 bd 73 9f 24 be
       -0.13681872 -0.14894588 -0.067168586 -0.1607645
0003a0 72 cd 84 3d 3b 71 87 3c 24 4e 7a 3c 9a d5 36 be
       0.06484498 0.016533485 0.015277419 -0.1785492
0003b0 ae 5a 38 3c 10 8f 44 bc 26 28 85 3c c9 37 5b bd
       0.0112520885 -0.011996999 0.016254496 -0.053519998
0003c0 22 fd 90 bc 55 79 00 3e f1 2c e2 bd 11 91 91 bd
       -0.017698828 0.12546284 -0.11043728 -0.07107747
0003d0 db b6 63 bb 6f 7f e9 bd 35 da 08 be 61 fa ac 3d
       -0.0034746442 -0.11401259 -0.1336449 0.084461935
0003e0 bd ed dc bc b2 10 48 be 67 1a a8 3d ab 9a 3f 3d
       -0.026968831 -0.19537619 0.08208161 0.046778362
0003f0 7d d8 46 be 3c 59 fd bd c5 77 e9 bc a4 be 8b bd
       -0.19418521 -0.12370536 -0.028499493 -0.06823471

seq.1.bias f4 [8]
000000 b3 db 39 3f 3a 20 29 40 07 63 05 40 e8 b1 1b be
       0.7260086 2.642592 2.0841691 -0.15204585
000010 3b 09 6b 40 0b 66 24 3f bf 7b 8a 3d 9f 48 78 40
       3.6724384 0.64218205 0.06761884 3.8794324

seq.3.weight f4 [1, 8]
000000 92 91 11 42 a5 dc 76 42 2b a6 64 42 2d f6 73 c2
       36.39216 61.715473 57.162273 -60.990406
000010 96 b0 b6 42 eb 87 8b 41 50 56 82 3e be 0f b7 42
       91.344894 17.441366 0.25456476 91.53075
